Overall_recommendation_model.tflite (tflite, 19652 bytes, 1 tensors)

model/dense/MatMul1 f4 [68, 68]
000000 0d 18 df bd 70 6d 53 be 4d 43 1c 3e 37 db 37 3e
       -0.10893259 -0.20647216 0.15260048 0.17954718
000010 5b ab 08 3e 48 b0 10 3d d8 22 cb bc 4a 24 84 3d
       0.13346617 0.035324365 -0.024796888 0.06452234
000020 ea ff 2e be 64 1e 0d 3d ad b5 bb bd 5f 85 0c be
       -0.17089811 0.03445281 -0.09165511 -0.13722752
000030 2c fc 1f be 56 0c 4e be c0 0c ac 3c 7b 5d 39 be
       -0.1562354 -0.20121893 0.021002173 -0.18102066
000040 62 02 c2 3d c0 d5 57 bd bf 86 36 be ba 90 e3 3d
       0.09473111 -0.052694082 -0.17824839 0.11111589
000050 af 1f e2 bd 2b 31 42 3e 18 e3 61 bd 2a 2d 80 3d
       -0.110411994 0.18964069 -0.055148214 0.06258614
000060 1e 98 46 be f2 a2 ac 3d 98 6e 9b bd c0 bc 42 be
       -0.19393966 0.08429517 -0.075894535 -0.19017315
000070 9a 88 8c bd 70 19 e1 bc c5 b3 42 3e a1 b5 32 3e
       -0.06861992 -0.02747795 0.19013889 0.17452098
000080 40 78 ab bc 00 9e 70 ba b1 75 42 be a0 16 55 3c
       -0.020931363 -0.0009178817 -0.18990208 0.0130058825
000090 32 64 96 3d d1 5c 3c 3e b4 8c 87 bd f2 2f 90 3d
       0.073433295 0.18394782 -0.06618634 0.07040395
0000a0 b3 92 2a 3e ca 46 9b 3d db ac 30 3e 0d 2f 52 3e
       0.16657524 0.07581861 0.17253439 0.20525761
0000b0 bd 65 1d be a4 fd 46 bd 9a ae f1 3d c2 61 8f 3d
       -0.15370841 -0.048581734 0.11800881 0.07001068
0000c0 af 2e b3 bd 66 ef c8 3d 1a 0d e2 3d 30 66 10 be
       -0.087491386 0.09811287 0.11037655 -0.14101481
0000d0 de ff 3f be 1e 02 02 be 7a 24 82 3d 29 7a d4 bd
       -0.1874995 -0.1269612 0.063546136 -0.10374863
0000e0 eb ba 28 be f6 80 8e 3d ca 1a 98 3d e0 75 1b bd
       -0.16477554 0.06958191 0.074269846 -0.03795421
0000f0 f1 d6 2e 3e d3 2e 24 be 98 8f 2d be 78 7d b1 bd
       0.17074181 -0.16033487 -0.16949308 -0.086665094
000100 c4 bf 19 3d 7a 48 c4 3d 58 06 ca 3c e4 22 3c 3d
       0.037536398 0.09584136 0.024661228 0.04593171
000110 f0 2f 05 be 0a 6a bd 3d 0c e8 0b be 2c f3 1b be
       -0.13006568 0.09248741 -0.13662738 -0.15229481
000120 98 e9 de 3c b3 8d 1c 3e 0a b4 b7 bd 80 01 4a bd
       0.027210996 0.15288429 -0.089698866 -0.049317837
000130 16 29 1b be ae 38 b1 bd 90 7e 21 3c 61 51 34 be
       -0.15152392 -0.08653389 0.009856835 -0.17609169
000140 ea 2a a1 3d 5b 5c 3b 3e cf f1 48 be e0 31 21 bc
       0.07869513 0.1829695 -0.19623493 -0.009838551
000150 d0 76 66 bd 7e 5f fb bd 4a d5 c4 3d e5 56 11 be
       -0.056265652 -0.12274073 0.09610994 -0.14193304
000160 28 21 74 bd 2f d9 17 3e 92 5d b8 3d 1a 5b df 3d
       -0.059601933 0.14828943 0.09002222 0.10906048
000170 0d 72 00 3e ac a6 19 3d 7f 05 0b 3e 5a a9 99 3d
       0.12543507 0.037512466 0.13576315 0.07503004
000180 12 f7 0d be 71 a3 4a 3e a8 2f f9 3c ed e8 52 3e
       -0.13863781 0.1978891 0.030418232 0.20596667
000190 4c 83 2b 3d 56 08 c2 bd fa e4 4c be 26 eb 37 be
       0.04187326 -0.09474246 -0.20009223 -0.17960796
0001a0 e0 76 bf bc 66 29 f5 3d 62 66 d4 3d a8 d4 33 be
       -0.023372114 0.11970787 0.103710905 -0.1756159
0001b0 37 0c 20 3e f8 2e 2a be 48 09 b6 bc fe e4 e0 3d
       0.1562966 -0.1661948 -0.022221223 0.10981177
0001c0 40 a7 a7 bc da aa 45 be 00 e2 23 3c 22 6d d9 3d
       -0.020465493 -0.19303456 0.010002613 0.106165186
0001d0 d0 73 51 be 49 cd 3e be a2 3a 9e 3d 30 12 1d bd
       -0.20454335 -0.18632998 0.07726027 -0.038347423
0001e0 aa 95 ee 3d 6c 6e 23 bd f4 ce 2a 3d f4 ea 26 bd
       0.1164964 -0.03990023 0.041701272 -0.040751413
0001f0 9c 92 4c 3d 50 d5 de bc df 22 4a 3e a9 cd 28 3e
       0.049944505 -0.027201325 0.19739865 0.16484703
000200 5c 07 22 be 5e 7f a5 bd 30 b6 ae bd 4a 35 81 3d
       -0.1582312 -0.08080934 -0.08530843 0.06308992
000210 24 28 79 bd c4 45 00 3d ca 65 e2 3d 25 51 25 3e
       -0.060829297 0.031316534 0.11054571 0.16144235
000220 54 61 c8 bd 3c 16 0d be 3a 7b de 3d 10 ad 1f 3d
       -0.09784189 -0.13778013 0.10863347 0.038983405
000230 60 8e 79 bc 75 f4 e2 bd d1 c9 0a 3e 33 b4 23 3e
       -0.015231699 -0.11081783 0.1355355 0.1598671
000240 06 a0 d1 3d 3a 51 e9 bd 61 d1 19 3e 4d d7 0c 3e
       0.102356 -0.11392446 0.15021278 0.13754006
000250 a8 62 e0 bd b0 66 10 be f4 13 5f bd 53 41 32 3e
       -0.10956317 -0.14101672 -0.05446239 0.17407732
000260 96 84 fb 3d 74 f0 50 3d c6 2d 46 be 30 68 f7 3c
       0.12281148 0.051010564 -0.19353399 0.030201048
000270 ec 7f 22 bd 40 e0 2e be da c0 c5 bd 50 81 0e bd
       -0.039672777 -0.17077732 -0.09655924 -0.03479129
000280 b2 58 90 bd 00 58 7f ba cd a8 c5 bd b4 48 0e bd
       -0.07048167 -0.0009740591 -0.09651337 -0.034737304
000290 d6 9f 80 3d 6a 7d 36 be 44 2b 8c bd 73 f3 33 3e
       0.06280486 -0.17821279 -0.0684419 0.17573337
0002a0 e2 45 87 3d 00 6d a8 bb 76 93 c5 3d d2 9b d4 3d
       0.06605126 -0.005139947 0.096472666 0.10381283
0002b0 60 fb 7b bd 0a e9 ac bd 9a 04 b0 3d c0 8b 85 3b
       -0.061519027 -0.08442886 0.08594628 0.0040754974
0002c0 3e 13 55 be 28 c7 24 be 98 ad 3e be 76 c1 08 be
       -0.20808122 -0.16091597 -0.18620908 -0.1335505
0002d0 b2 7a c1 3d 93 99 55 3e 0e eb 8a 3d 20 9e 89 bc
       0.094472304 0.20859365 0.067831144 -0.016799033
0002e0 2c 88 06 bd d4 80 04 be 57 9a 40 be 50 e6 0c bd
       -0.032844707 -0.12939769 -0.18808876 -0.03439933
0002f0 7c 53 73 bd ba 0f f9 3d fa fb 89 3d a3 fd 3a 3e
       -0.05940579 0.12161203 0.06737514 0.18260817
000300 ca 44 09 be 3b dc 3a 3e ce f7 31 be e2 5f 97 bd
       -0.13405147 0.18248074 -0.17379686 -0.07391335
000310 04 82 10 be 06 04 cc 3d 94 e4 26 3d 9a f9 11 be
       -0.14112097 0.09961705 0.040745333 -0.14255372
000320 60 6c ba bc d8 47 55 be eb a2 3c be 9e d3 95 3d
       -0.022756755 -0.20828187 -0.18421523 0.073157534
000330 5c 2c 69 3d 6d 77 e7 bd a0 79 86 bd f3 4c 36 3e
       0.05692707 -0.113020755 -0.06566167 0.17802791
000340 60 c5 90 bc bc 1b 34 bd 00 a9 69 3a c0 36 21 be
       -0.01767224 -0.043971762 0.00089134276 -0.15743542
000350 a9 17 0a 3e e2 f3 85 3d a2 03 81 bd 98 14 ab bd
       0.13485588 0.065406576 -0.06299521 -0.08353537
000360 40 a5 31 3c 7e 95 85 bd 70 75 9e bd ee aa cc 3d
       0.010842621 -0.06522654 -0.07737243 0.0999354
000370 58 74 0b be e8 6e b0 bc 95 cd d1 bd fa aa d8 bd
       -0.136186 -0.02153726 -0.1024429 -0.10579486
000380 87 ab 16 3e a4 51 ab bd 1a 83 ff bd 40 13 d9 3b
       0.1471387 -0.08365181 -0.124761775 0.006624609
000390 2d c3 21 be cc ea 3d 3d 18 04 91 3c 3b bf 50 3e
       -0.1579711 0.046366498 0.017702147 0.20385449
0003a0 00 e2 a3 b9 80 fa b1 3a ca 5a 1e be fc bb 39 be
       -0.00031258166 0.0013578683 -0.15464321 -0.18138117
0003b0 1d 93 37 3e bb 25 2e 3e 18 c4 db bd 48 a6 97 bc
       0.17927213 0.1700658 -0.10730761 -0.018511906
0003c0 28 81 06 be 9a 83 46 be 13 e8 44 3e d8 96 09 bd
       -0.13135207 -0.1938614 0.19229154 -0.03359112
0003d0 32 e3 f8 3d 50 fe 34 be 0d 98 36 3e f4 7f 11 3d
       0.12152709 -0.17675138 0.1783144 0.035522416
0003e0 c1 0d 4f 3e 48 b3 85 3c 80 11 49 be c8 c7 27 be
       0.2022009 0.01632084 -0.19635582 -0.16384804
0003f0 62 e0 8d bd 1c 39 97 bd b0 ea 00 bd 11 a5 16 3e
       -0.06927563 -0.073839396 -0.031473815 0.14711405
